…
   "execution_count": 157,
   "metadata": {},
   "outputs": [],
   "source": [
    "Y_train = to_categorical(y_train)\n",
    "Y_test = to_categorical(y_test)"
   ]
  },
  {
   "cell_type": "code",
   "execution_count": 189,
   "metadata": {},
   "outputs": [
    {
     "name": "stdout",
     "output_type": "stream",
     "text": [
      "_________________________________________________________________\n",
      "Layer (type)                 Output Shape              Param #   \n",
      "=================================================================\n",
      "dense_33 (Dense)             (None, 40)                7960      \n",
      "_________________________________________________________________\n",
      "dense_34 (Dense)             (None, 30)                1230      \n",
      "_________________________________________________________________\n",
      "dense_35 (Dense)             (None, 25)                775       \n",
      "_________________________________________________________________\n",
      "dense_36 (Dense)             (None, 20)                520       \n",
      "_________________________________________________________________\n",
      "dense_37 (Dense)             (None, 15)                315       \n",
      "_________________________________________________________________\n",
      "dense_38 (Dense)             (None, 10)                160       \n",
      "_________________________________________________________________\n",
      "dense_39 (Dense)             (None, 25)                275       \n",
      "_________________________________________________________________\n",
      "dense_40 (Dense)             (None, 1)                 26        \n",
      "=================================================================\n",
      "Total params: 11,261\n",
      "Trainable params: 11,261\n",
      "Non-trainable params: 0\n",
      "_________________________________________________________________\n"
     ]
    }
   ],
   "source": [
    "# create specified network\n",
    "ann = Sequential()\n",
    "\n",
    "# first layer \n",
…
